2nd year/AI/Assignments/Assignment7/code/myNet.pt (torch, 19999 bytes, 5 tensors)

hidden1.weight f4 [64, 2]
000000 b7 0c 81 3c f0 b7 4d bc 18 13 74 3e e1 5c 29 bd
       0.015753133 -0.012556061 0.23835409 -0.04134834
000010 48 a3 13 bc 2f a1 cf bc ea 95 17 be 94 b9 bc bc
       -0.009011097 -0.025345413 -0.14803281 -0.02303771
000020 d3 7f 3f be f5 36 20 3c 51 f8 51 be d8 8f 80 bb
       -0.18701105 0.009778728 -0.20504881 -0.0039233975
000030 0f d8 66 3d ee d4 58 bc 82 58 78 3c ba 07 77 bc
       0.056358393 -0.01323436 0.015157821 -0.015077526
000040 7a 13 60 bc 2d d2 bb 3b f5 ad 9c bc 39 b8 80 3c
       -0.013676519 0.005731842 -0.019125918 0.015712844
000050 0b e1 18 3f 84 c0 47 3e 83 fa 92 bc 3f ee eb 3c
       0.5971839 0.19507033 -0.017941719 0.028800128
000060 84 96 78 3e bd 50 ca 3c 4f 54 7a bd 09 75 44 bc
       0.24276167 0.024696702 -0.06111556 -0.011990794
000070 a2 89 5a 3b a7 de 96 3c 86 90 d3 3b bd e8 06 bc
       0.0033346196 0.018416716 0.0064564375 -0.0082342
000080 1a 6f fd 3c df e7 18 be 46 7b f2 bc 0e eb 64 bb
       0.030936766 -0.14932202 -0.029599797 -0.0034930143
000090 80 cc 68 bb 74 78 91 3a 8d 68 de 3e 1d 0f 8c bc
       -0.0035522282 0.001109852 0.4343914 -0.01709705
0000a0 bf 1d 89 bf 13 6f b2 be 1d 64 db 3b fc 46 67 bb
       -1.0712203 -0.34850368 0.006695284 -0.0035290113
0000b0 3a 63 0b 3f 0b f2 16 3e 1f 25 53 be c1 19 0f bd
       0.5444828 0.1474077 -0.2061963 -0.03493667
0000c0 2c 13 a1 bd 9e af e9 bc 11 32 ca 3c 00 fc 1a 3d
       -0.07864985 -0.028526124 0.024682077 0.037837982
0000d0 93 ea 3e 3b 1c b2 fc 3a 77 75 dc 3d 55 51 34 39
       0.0029131516 0.0019279155 0.10764592 0.00017196436
0000e0 48 a3 8d 3d 78 e7 ad bc 65 28 86 3f 11 7c b4 3e
       0.06915909 -0.021228537 1.0481077 0.35250905
0000f0 5a 74 51 3e 41 0b ea bd ce 1c 9d 3c 9e c8 88 3d
       0.20454541 -0.11427928 0.019178774 0.0667889
000100 b6 7c c0 3f 1b 6f f2 3e a8 90 e5 3d 5a bc 29 3c
       1.5038059 0.47350392 0.112092316 0.010359848
000110 38 e8 a2 be 92 e0 44 bc 89 de c6 3d 7a 34 08 3d
       -0.31817794 -0.012016432 0.09710414 0.03325317
000120 59 ac bd be d8 96 e5 bd be 84 e7 3c 6e 8b e1 bc
       -0.37045553 -0.11210412 0.028261539 -0.027532306
000130 6a 85 af bc 40 4a 79 bc dd 7b 95 be 82 f7 d9 3c
       -0.021425921 -0.0152154565 -0.29196063 0.026607279
000140 3b 86 13 bd 04 14 bd bd 0a c2 8f bf 16 37 b7 be
       -0.036016684 -0.09232333 -1.1231091 -0.35784215
000150 16 c2 87 3f 15 01 ab 3e 1a bc 29 3b 14 41 d1 3a
       1.0606105 0.33399263 0.002589947 0.0015964829
000160 d7 89 3d 3d 55 d7 4a 3e c2 f5 a6 bf 05 d5 d5 be
       0.046274032 0.19808705 -1.3043749 -0.41764084
000170 2a 1a 98 ba 4a 63 2e bb a0 0a c3 3a 2b 10 16 3b
       -0.0011604477 -0.0026609474 0.0014880486 0.002289782
000180 91 48 14 bc d7 86 2c 3d 7a 85 fc 3d 0f b5 93 bd
       -0.009050504 0.04212078 0.12330146 -0.072122686
000190 bf 81 9a be b3 c2 3a 3b cf 74 ed bc c4 97 c6 3c
       -0.30177113 0.0028497397 -0.028986363 0.02424229
0001a0 4c 0f 67 3b cd a3 58 bb b5 a7 be bf 7f dd f7 be
       0.003525692 -0.0033056617 -1.489493 -0.48411176
0001b0 4c 42 15 3b a3 2a 83 3b fb c1 98 bb 32 e0 ea ba
       0.0022775112 0.0040028854 -0.004661796 -0.0017919599
0001c0 33 cf 01 c0 58 ce 25 bf 77 db bb 3e b5 6a 91 ba
       -2.0282714 -0.6476798 0.36690876 -0.0011094423
0001d0 5e 4d b4 bb 74 e3 c2 ba 41 5d 21 bb 03 23 83 bc
       -0.005502387 -0.0014868812 -0.0024622234 -0.016007906
0001e0 fd 4e dc 3c 0f 77 95 3d 9c 5a d8 39 81 ba 65 bb
       0.026893133 0.07298099 0.0004126624 -0.0035053792
0001f0 87 a5 9d be bf 53 61 bd 04 d0 95 3f 8d e7 c1 3e
       -0.3079035 -0.055011507 1.1704106 0.37871972

hidden1.bias f4 [64]
000000 04 8e c1 be 0c ad 86 c0 14 d2 1c bf 59 9f f5 bf
       -0.37803662 -4.208624 -0.61258054 -1.9189254
000010 86 37 4e c0 ed c2 2b c0 90 50 8d bf 3a 8d bf be
       -3.222139 -2.6837723 -1.1040211 -0.37412435
000020 2a 30 8d be 7c 32 f1 be 8f 26 89 40 a5 53 71 bf
       -0.2757581 -0.4710883 4.285957 -0.94268256
000030 a6 41 35 c0 dc f6 5f bf 05 49 d6 be ed af ba be
       -2.8321319 -0.8748605 -0.41852584 -0.36462346
000040 39 0b 16 c0 dd 7c b3 be 02 a0 36 bd 68 87 9a c0
       -2.344435 -0.350562 -0.04458619 -4.829029
000050 cf 55 0f c1 ee 43 11 be 81 27 e4 c0 07 75 23 c0
       -8.958449 -0.1418607 -7.1298223 -2.5540178
000060 a0 cb a8 bf 03 69 4a c0 c3 4d 6d bd d8 4e d6 bf
       -1.3187141 -3.1626594 -0.057935487 -1.6742811
000070 49 95 6e bf b3 03 14 c1 23 ee 7b c0 5a 00 59 bf
       -0.9319654 -9.250903 -3.9364097 -0.8476616
000080 f9 b1 fd c0 65 3d bc bf b0 97 84 c0 00 6c 50 c0
       -7.927975 -1.4706236 -4.1435165 -3.2565918
000090 5f 65 88 40 2c c9 a7 bf 02 94 a0 be 16 6d 43 c0
       4.2623744 -1.3108268 -0.3136292 -3.053533
0000a0 5e d8 d8 bf 8a c6 0c c1 10 98 09 c1 3e 7a ca bd
       -1.694103 -8.798471 -8.599625 -0.09886597
0000b0 1d 4b 22 c0 93 ba 9e 3f a3 df 3f bd af 4e 84 bd
       -2.5358346 1.2400688 -0.046844136 -0.0646032
0000c0 a4 b4 02 bf 64 69 07 c0 ac 0a 4d c0 c2 8b c8 bf
       -0.51056886 -2.1158075 -3.2037764 -1.5667651
0000d0 00 33 01 be 68 28 0b c1 b8 b1 b1 be 92 20 95 bd
       -0.12617111 -8.697365 -0.347059 -0.07281603
0000e0 85 25 86 c0 78 1e 7e c0 a3 4e 8f bd c7 01 89 be
       -4.19208 -3.9706097 -0.06997421 -0.26759169
0000f0 0e 6f 95 bf 00 33 22 bd 2e 82 80 c0 fc 92 05 c0
       -1.1674516 -0.03959942 -4.015891 -2.0870962

hidden2.weight f4 [64, 64]
000000 41 b7 d6 3c 83 e3 32 bb 95 90 1d be 5d e1 9f bd
       0.02621043 -0.0027296252 -0.15387185 -0.078066565
000010 84 41 89 bd aa 78 bd bd c0 95 17 3d a3 14 92 3b
       -0.06701949 -0.092515305 0.037008047 0.0044580265
000020 8c 8c 16 be 5e c2 a0 bd ed c8 30 bf d9 43 19 3c
       -0.14702052 -0.078495726 -0.6905659 0.009354555
000030 a4 8e 91 bd 3a 81 03 be 2d 57 79 bc df ed 8f 3d
       -0.07107285 -0.12842265 -0.015218538 0.07027792
000040 6d 74 51 3d b7 7a e6 be bf bb a5 bc 63 04 a2 3d
       0.051136423 -0.450155 -0.020231126 0.07910993
000050 d7 32 1b be e0 6d 9d bd 8c fc 07 3d 28 6a 3b 3c
       -0.15156113 -0.076869726 0.03319983 0.011438884
000060 fa 20 d0 bb 67 cd 90 3d 1d cb f6 be 19 a5 6f 3b
       -0.0063515874 0.070704274 -0.48201838 0.0036566912
000070 1e ba 79 bd d0 f8 2c bd 06 89 8d 3d 4d 83 2b be
       -0.06096851 -0.042229474 0.06910901 -0.16749306
000080 e9 ce 51 3d d6 65 e5 3c 8e e3 55 3e 3c 18 2d 3d
       0.051222716 0.02800266 0.20887586 0.04225944
000090 c2 f3 95 be 21 aa 20 be 8c 53 9b be 5e ce 04 be
       -0.29287535 -0.15689899 -0.3033718 -0.12969348
0000a0 40 c0 29 3d 84 fe 9f be 4c 8a 1f be 0b e2 3f 3d
       0.04144311 -0.31248868 -0.155801 0.04684643
0000b0 7c 9a a2 be 44 d4 b6 be 17 bc 41 bd 57 79 b8 bc
       -0.31758487 -0.3570882 -0.047298517 -0.022518797
0000c0 ef 39 4f 3d c4 73 30 be a9 09 fd 3c 7e a3 fd bc
       0.05059236 -0.17231661 0.030888395 -0.030961748
0000d0 6a cc 84 3d d1 97 6b be 20 97 91 bd 13 4b 1a be
       0.064843014 -0.23007132 -0.07108903 -0.15067701
0000e0 88 ca 83 be e8 43 02 3c 60 6b 12 3d 22 3f 13 be
       -0.25740457 0.00795076 0.035746932 -0.14379552
0000f0 8a 43 8f 3b 73 76 e4 bd 86 53 1d bc 99 42 c0 bc
       0.004372065 -0.11155405 -0.009602433 -0.023469256
000100 00 ad 69 bb 9c b0 63 bd 40 5c 47 3c 6e aa a0 bd
       -0.0035656095 -0.05558835 0.01216799 -0.07845007
000110 1f 13 f0 bd e4 f8 f7 bd 46 ac 32 be 94 8d 63 3d
       -0.11722397 -0.12108019 -0.1744853 0.05555494
000120 cd 74 1e be e6 eb c0 3d 91 f2 99 bc 30 73 1b bd
       -0.15474243 0.09419994 -0.018792422 -0.03795165
000130 26 36 84 3d cc 6a 40 3d 44 63 48 3d cb 11 1b be
       0.064556405 0.04697685 0.048922792 -0.15143506
000140 fb 7f 23 be ea 54 c7 bd 99 10 62 bc 79 20 3d be
       -0.1596679 -0.09732993 -0.0137979025 -0.18469419
000150 d8 8b 20 3d ba f9 f8 bc 80 2c 26 3c 80 56 0a bc
       0.039195865 -0.030392516 0.010142446 -0.008443475
000160 ca 8f 98 bd 81 c7 66 bd 59 2d e0 bc 78 48 d4 bd
       -0.074493006 -0.056342606 -0.027365373 -0.10365385
000170 dc 1a 11 be 39 e1 b1 bd 36 aa 7d bd a2 6b b2 3d
       -0.14170402 -0.08685536 -0.061929904 0.087119356
000180 88 6d 04 bc b9 6e 0a be 6d 1a a4 3b 44 6c 9c bd
       -0.008082755 -0.135188 0.005008033 -0.076378375
000190 b5 7e fb bd fe 79 16 3c 7e 20 26 bd 20 d4 11 3c
       -0.12280027 0.009184359 -0.04055833 0.008900672
0001a0 fd 53 ea bd fe cd 85 bc 00 53 67 3d a2 b1 74 bd
       -0.11441801 -0.016333576 0.05647564 -0.059739716
0001b0 0f 84 ea bd 7a 40 3a be 12 54 79 3d 78 0d 28 be
       -0.114509694 -0.18188658 0.06087119 -0.16411388
0001c0 1c ea 4c 3d 47 2c 0d 3d 40 30 1a 3d d0 11 e8 bd
       0.05002795 0.034466054 0.03764367 -0.113315225
0001d0 49 14 e2 bd ec 32 6a bd 00 97 e0 bc b2 b6 86 bd
       -0.11039025 -0.05717747 -0.027415752 -0.06577815
0001e0 24 f7 83 3d 04 85 97 3c ea 82 a8 bd 29 5d 5a 3d
       0.06443623 0.018496044 -0.08228095 0.0533115
0001f0 6c d4 e0 bc 93 a3 1e be 38 0c c1 bd b9 c4 c7 bc
       -0.02744504 -0.15492086 -0.09426159 -0.024385797
000200 cb 67 21 be d3 32 52 3d 5a 71 dd bd 59 34 60 be
       -0.1576225 0.051318 -0.10812636 -0.21894969
000210 f7 5d 10 bc 5a 57 58 3d 14 ad fb bd 03 f5 91 bc
       -0.008811465 0.05281768 -0.122888714 -0.017817026
000220 dd 4a 55 be 6a f2 29 be de 1a 4c 3c 05 b7 b0 bd
       -0.2082934 -0.1659638 0.0124575775 -0.08628658
000230 e2 a2 8f be 9a 95 2f 3d a3 e9 1a be b7 12 cd bd
       -0.28053957 0.04286728 -0.15128188 -0.10013335
000240 c8 05 f9 bd e3 76 1e be 25 f6 8a 3d 84 a2 9b be
       -0.12159306 -0.15475039 0.067852296 -0.30397427
000250 97 f2 30 be 11 d9 27 be 53 04 35 bd cd 42 5e 3b
       -0.1728004 -0.16391398 -0.044193577 0.0033914328
000260 46 00 7a bd 84 aa 35 bd 67 a1 54 bd dd 70 cd bd
       -0.061035417 -0.04435207 -0.051911738 -0.100312926
000270 5e 69 13 be a3 d9 ce bd 8a 01 95 be 3c 35 30 3d
       -0.14395663 -0.10100105 -0.29102737 0.04301952
000280 f6 f1 d0 be dd 5e 02 bd 45 a3 b4 3a 1e 16 38 be
       -0.40809602 -0.03182875 0.0013781568 -0.17977187
000290 86 d9 f6 bd 7b d9 b8 3d 7a e9 e0 be 46 bf cf bd
       -0.12053208 0.09025856 -0.43928128 -0.101439044
0002a0 5c ed b5 bd 7b 11 8f bd 13 3f 91 3d 80 3b 0b 3d
       -0.08883163 -0.06985756 0.070921086 0.03399229
0002b0 16 98 79 be 1f 6a a6 be 98 3b 08 be 4e 3e 27 be
       -0.24374422 -0.3250284 -0.13303983 -0.16332361
0002c0 01 79 60 bd 0e 6f b8 bd 6a f5 aa bc 80 9a 31 bd
       -0.0548029 -0.09005557 -0.020868976 -0.043360233
0002d0 c7 23 50 3d 4d ca d3 bd 7a e2 7c 3c 2e a7 d2 bd
       0.05081537 -0.1034132 0.015434856 -0.10285793
0002e0 f7 32 ef be 05 6a 95 be b0 cb f8 bd db 44 7b be
       -0.4671857 -0.2918245 -0.12148225 -0.24537985
0002f0 c4 bd 8a bb 4b a4 7f bd ba 3c 12 be 79 52 d2 bd
       -0.0042340476 -0.06241254 -0.14280978 -0.10269637
000300 d5 cc 35 be 38 e9 3c be 69 21 04 be 54 f2 b2 bd
       -0.17753918 -0.18448341 -0.1290337 -0.08737627
000310 30 e3 8d 3c 7f 99 0f be bc 7f 67 3d 41 2c cb bd
       0.017320246 -0.14023398 0.0565183 -0.0992055
000320 85 f5 b1 3b 97 c8 1c be db 95 87 be 6d 4f a1 bd
       0.0054308795 -0.15310894 -0.26481518 -0.078764774
000330 78 24 26 3b e2 ef 2d be 80 28 38 3d 46 6d 44 bb
       0.0025351327 -0.1698604 0.0449605 -0.0029972359
000340 da f2 8f bc 92 9a 18 be e2 5c 0b 3d f6 45 4e bd
       -0.017571855 -0.14902714 0.034024127 -0.05035969
000350 17 11 51 3d 54 bc 1f be 6f 7e 3e bd 2e 4a ce 3c
       0.05104169 -0.15599185 -0.046507295 0.025181856
000360 2e a4 9c bd 0e e7 25 bd 7d af 84 be 35 9e 58 be
       -0.07648502 -0.040503554 -0.25915137 -0.21154101
000370 17 60 0b bd e7 20 b9 3c 84 cc d0 3d a7 ae ca bd
       -0.034027185 0.022598697 0.10195258 -0.098965935
000380 9b 5c 7a bd dd 4b 73 bd 14 73 76 3d 07 f0 45 be
       -0.06112347 -0.05939852 0.06016834 -0.19329844
000390 15 ba 01 bf 81 db 25 3e ba bc 64 3d 1a cb ac 3d
       -0.50674564 0.16197015 0.055844046 0.08437176
0003a0 a8 05 6e bd 6b a3 df bd b3 03 84 3d 21 32 6c 3d
       -0.058110863 -0.109198414 0.06446018 0.057664994
0003b0 14 e8 23 bd 61 ea 94 be e6 50 ae bd 74 24 e8 bd
       -0.04001625 -0.29085067 -0.08511524 -0.11335078
0003c0 3b 18 e5 bb 44 6f bf bb e2 03 8b 3d 15 90 ec 3c
       -0.006991414 -0.0058421213 0.0678785 0.028877297
0003d0 58 2b 10 be ee 35 8b bc 54 78 e6 bd e3 c6 1d be
       -0.14079034 -0.01699349 -0.112534195 -0.154079
0003e0 47 a2 04 be bc 6d a5 be c3 d4 d7 3c d3 2f b3 3d
       -0.12952529 -0.32310283 0.02634657 0.08749356
0003f0 42 be c5 bd 08 d5 1d be 56 10 c8 bd 80 0e 0f be
       -0.096554294 -0.15413296 -0.09768741 -0.13970375

hidden2.bias f4 [64]
000000 a7 2a e4 be 0c 9f b9 bd fe 26 47 bd 04 67 fc be
       -0.4456379 -0.09063539 -0.04862117 -0.49297345
000010 c1 a0 99 be a2 8d bc bf c1 14 17 be 55 0e 95 bb
       -0.30005458 -1.4730723 -0.1475401 -0.0045488277
000020 7d cf eb be 42 c1 ab be b8 5e 51 bc 8e 1b 26 3d
       -0.46056738 -0.33545882 -0.01277893 0.040553622
000030 7f 01 2b bc 90 b5 c1 be c8 8e d8 3c 19 ef 25 3d
       -0.010437368 -0.37833834 0.02643527 0.040511224
000040 23 08 00 bf 6a 2c f6 be 37 6f ca be 05 74 1b 3d
       -0.50012416 -0.4808076 -0.39537975 0.03795244
000050 98 b9 1a bc 41 6a 12 bf da b2 0a 3e e0 33 49 3f
       -0.009443663 -0.5719338 0.13544789 0.7859478
000060 bd 73 03 3d 4d b7 68 bd 64 81 4c bc 3d 1e 58 ba
       0.0320928 -0.056815434 -0.012482021 -0.0008244252
000070 67 38 6e be 88 0c 3a 40 40 72 c2 bd 6f bb ef 3c
       -0.23263703 2.9070148 -0.09494448 0.02926418
000080 c4 3c 22 be de d8 30 be bb e7 d5 be b0 3b 33 be
       -0.15843493 -0.17270228 -0.4177836 -0.17503238
000090 99 43 8c be 51 fa a7 3c 84 75 32 be c1 34 eb bd
       -0.27395323 0.020505102 -0.17427641 -0.114846714
0000a0 62 be ad be 3d cc 22 40 69 5a b9 3c d6 22 a7 bc
       -0.33934313 2.5437157 0.022626119 -0.020402353
0000b0 5d 2a a3 bd 94 d7 fe bc d4 79 09 be f0 f9 3c 40
       -0.079670645 -0.031108655 -0.1342538 2.952755
0000c0 17 2b b4 bf e9 29 99 be 6d 7e 12 be 5b c9 d1 bd
       -1.407565 -0.29914787 -0.1430604 -0.10243484
0000d0 bd a1 8a bd 13 04 e8 be 9b 11 80 bd 08 d5 dc bd
       -0.067691304 -0.45315608 -0.06253358 -0.1078282
0000e0 39 b3 04 40 27 fd c9 bd 47 70 66 be e3 a7 d4 be
       2.073439 -0.09862738 -0.22503768 -0.41534337
0000f0 79 a9 99 be 64 01 06 bf 89 31 fe be 7c 82 d6 bd
       -0.3001211 -0.5234587 -0.49647167 -0.10474107

output.weight f4 [1, 64]
000000 f3 77 a3 3e 8c d8 84 3d 98 3f 03 3e 4a c7 82 be
       0.31927451 0.064866155 0.12817228 -0.2554267
000010 50 d9 8b 3e 9b 76 88 3e 68 57 2b 3e 0c 26 51 bd
       0.27314234 0.2665299 0.16732562 -0.051061675
000020 00 e4 74 be 61 e5 05 3d 4e 19 b9 3c fe f9 3d 3d
       -0.239151 0.032689456 0.022595074 0.04638099
000030 11 cb 4b bc 9e 40 98 3e c8 77 12 bd c7 0e 64 bc
       -0.0124385515 0.297368 -0.035758764 -0.013919539
000040 e6 c9 8e be 50 ad ae 3b d1 7c 00 3e aa 84 40 bc
       -0.2788841 0.005330719 0.12547614 -0.01175038
000050 b6 0b e3 bb 63 be 65 bd ff 81 94 be 09 16 29 3e
       -0.0069288863 -0.05608977 -0.2900543 0.16512312
000060 59 ac 34 bd b3 5a 98 3c c2 fa 8a 3d 76 d1 47 bc
       -0.044109676 0.018597936 0.067861095 -0.0121959355
000070 2d 7a a4 3d 6b c7 82 be 35 4e c3 3c e2 02 0f bd
       0.08031116 -0.2554277 0.023841003 -0.03491486
000080 9d 6e 63 bb da a1 c8 bc 67 2f 9b 3e 4b da 78 bb
       -0.0034703382 -0.02449124 0.30309603 -0.003797191
000090 29 55 65 3e 25 47 9e bc 9f 57 81 be 00 25 00 bd
       0.22395767 -0.019321034 -0.25262162 -0.031285286
0000a0 11 61 90 be 02 e6 cb 3d 7c b2 3a 3d 2f 4a 24 3d
       -0.28199056 0.0995598 0.045580372 0.04010981
0000b0 22 8e c7 ba 40 cc 30 3d 75 9a 61 bd 80 04 85 be
       -0.0015224854 0.043163538 -0.055078942 -0.25979996
0000c0 e9 2c 3d be 2d b8 82 be 5a dd 10 be 93 87 cf bc
       -0.18474163 -0.2553114 -0.14146939 -0.025333202
0000d0 ce 04 e7 bc 1b f4 8c be 00 13 83 bc 3f 93 37 bd
       -0.028200533 -0.27529988 -0.01600027 -0.04481816
0000e0 ef 58 92 3e 83 67 11 3c 57 3e 8d bd 1b 34 8c 3e
       0.28583476 0.008874777 -0.06896656 0.27383503
0000f0 94 60 7d be 31 e7 b1 bc 68 6d 82 be db 6a a5 3d
       -0.24743873 -0.021716686 -0.25474095 0.08077022
